pv_model.pth (torch, 849854 bytes, 14 tensors)

encoder.weight_ih_l0 f4 [512, 4]
00000000: dd04 60bd d9f0 db3c 36ad 12bf b62e 1ebe
00000010: c18d 11bf 4284 27bf 5ff4 66be 189f 89bd
00000020: b01b e2bd adb7 cfbd 8408 06bf 34ee b1be
00000030: 1da9 343e f2d2 e03d 4a52 4d3f ad8a 4e3f
00000040: 393b 043a 9f26 babb ac90 91be 7a98 b43c
00000050: 72b9 25bf 5ed2 1ebf f7f4 7cbf 6280 0ebf
00000060: 3e33 fbbe 10b2 7bbe 1365 abbe f0f6 33bf
00000070: 4f0f acbe bff6 e7bd 71a1 053e 9e12 d7be
00000080: ff36 83be f989 16bd 2aa1 39be 3fe5 afbe
00000090: 4654 bcbf 848e a4bf 9824 a3bf 218d 7cbf
000000a0: f752 79be e7fa 86be 6006 67be 9782 bebe
000000b0: 2ca4 abbe c328 a0be 42e6 09bf 0137 49bf
000000c0: 7257 f3be 5306 b3be 7bce a4bd cf8e c8be
000000d0: bbba 81be 6b89 59be 4854 69bf 8e79 24bf
000000e0: 7a99 09bf 64d1 1dbf fe61 7dbf 5d5c 72bf
000000f0: ed2a 583d 88ad a1bd 8ef5 15bf 7a75 96be
00000100: 46f2 803e ddee 613e 79cb dbbc 9789 6a3e
00000110: e2f9 25bf b938 27bf 17da 42bf 99e5 28bf
00000120: 8138 9f3d b39c 82bd 41a5 e8be 4ddc 4bbe
00000130: 2ed7 f9be 71c0 03bf 6851 ebbd 0f04 a5be
00000140: d171 f1be 04d2 0bbf 6bc9 85bf d5f5 05bf
00000150: b358 d6bd 9f68 6dbe e131 2abe 73c2 86be
00000160: 014f 89be 8d08 95be 8e58 0abf 1f14 dbbe
00000170: 4d81 b0be e809 1fbe 2765 e2be 57cf a1be
00000180: 4c4a d8be 7508 00bf 0750 00bf 77b4 2ebe
00000190: bd0f 2cbf 2acd 2cbf efc1 a3bf 5dce 7bbf
000001a0: fd7d 89bf 8ba0 67bf ea7d 87bf 6855 69bf
000001b0: 972d 99be 4374 79be 8d08 4cbf fa7f 0bbf
000001c0: c973 0cbe cd45 5cbe ff6f 48bf ec66 87be
000001d0: 9ffc b53d 738e b83d 6077 e7bd 7093 1dbe
000001e0: 4adc aa3d 557e 76bd 4680 e3be 3ca9 90be
000001f0: 97a1 c2be 63d4 71be aa45 2abf 832d 45bf
00000200: 9718 b83e 3561 463e 4e7a 69be 00f0 5fbd
00000210: 2348 8f3e 184c 783c ee20 b6be 0c94 50be
00000220: d17c 24bf 16bf fdbe baf3 60bf 2f14 74bf
00000230: 8dee c8bc 95d1 f3bc 3f40 4abf a66d 59be
00000240: 2f48 71be 5814 96be ef56 88bf 3632 62bf
00000250: beda c13e d1f1 603e f553 983e 11f9 093f
00000260: edac 7b3f b062 8a3f 1988 913f 2c33 9a3f
00000270: ba7b e5be 1fea 00bf 95c0 223e f56f f1be
00000280: 502b bbbe 0e83 9cbe 61bb 5dbf 2549 f2be
00000290: 89ce f3be eed0 dfbe cc6f 85be bb5a 50bf
000002a0: 4b47 40bf 8de6 1bbf 89bc e8be c1ef d5be
000002b0: a6c5 9fbd 8a51 03be 65f8 9bbe 820a 2dbe
000002c0: e156 ccbf 3d14 cdbf 878c 95bf 3467 9dbf
000002d0: 9b99 e0be 7b71 ffbe d783 44bf 1184 57bf
000002e0: 7cc7 22bf 19c2 20bf 4a01 89bf ac7d 26bf
000002f0: bdf5 51bc b8f6 4cbd ecc8 eebe d45f 9cbe
00000300: 4d27 a03e 740b 883e c321 923d e2b5 ea3d
00000310: 8981 c8be 70e3 9fbe b1a1 35bf 69e3 8dbe
00000320: afe8 c0be ccca 7bbe 90ec 25bf 587c 73bf
00000330: 4747 00bf 83b0 cbbe 3c62 49bf 8eff a1be
00000340: a12e 84bf 8f11 76bf 33d4 7fbf e30f 00bf
00000350: 17d6 fabe f3fc a6be 5f69 7cbe fdc8 c5be
00000360: acd3 c2be a582 b1be 338d 27bf fee7 20bf
00000370: e844 8dbe 2064 85be b4ec 63bf a07b 05bf
00000380: 195b 07be f933 e9bd 2fe4 d7be 7d1c a5bd
00000390: 7549 b83e 86cf a43e 754f 0e3e 9d77 9a3e
000003a0: 3fe6 fabd 64ba 28be b289 95be 871d adbe
000003b0: a141 58bd 0e9e e3bd 5115 25bf 4b0c dfbe
000003c0: e58b 09bf 811b 08bf e69f 9dbe 62fa 4ebf
000003d0: b8d3 443e 0e41 c73d c8c3 5a3d 5541 643e
000003e0: 03e1 ce3e 9c89 c73e 02d2 a23e cdcc 603e
000003f0: 7ea1 07bf 636b 12bf 3bb2 32bf b88a 36bf
-0.054692138 0.026848244 -0.5729555 -0.15447506 -0.56856924 -0.65436184 -0.22554158 -0.06719798
-0.11040437 -0.10142455 -0.52356744 -0.34752047 0.17642637 0.109777346 0.8020369 0.8068035
0.0005044225 -0.0056808735 -0.28430688 0.022045363 -0.6473609 -0.62039745 -0.98811287 -0.55664647
-0.49062532 -0.24579644 -0.3347555 -0.7029867 -0.3360543 -0.1132636 0.13049866 -0.4200639
-0.25627896 -0.036752675 -0.18127885 -0.34354588 -1.4713218 -1.2855992 -1.2745543 -0.98652846
-0.24348055 -0.26363298 -0.22561026 -0.37209007 -0.3352369 -0.312811 -0.5386697 -0.78599554
-0.47527653 -0.34965762 -0.080471955 -0.39171454 -0.25337777 -0.21243827 -0.9114423 -0.6424798
-0.5374981 -0.6164763 -0.9897765 -0.94672185 0.052775312 -0.078944266 -0.5857781 -0.29386503
0.2518484 0.22063775 -0.026830422 0.22904049 -0.64834416 -0.65320927 -0.7611403 -0.6597534
0.07774449 -0.06377544 -0.4543858 -0.19908257 -0.48796982 -0.5146552 -0.114901364 -0.3222966
-0.47157148 -0.54617333 -1.0452093 -0.52328235 -0.10466137 -0.23184441 -0.1662059 -0.26320228
-0.26818088 -0.29108086 -0.54041374 -0.4278879 -0.3447365 -0.15531123 -0.44217798 -0.316035
-0.42244184 -0.50012904 -0.5012211 -0.1706103 -0.67211515 -0.67500556 -1.2793559 -0.9836176
-1.0741574 -0.90479344 -1.0585301 -0.91145945 -0.29917595 -0.24360757 -0.7970055 -0.5449215
-0.13716044 -0.21511002 -0.7829589 -0.2644571 0.08886074 0.09011545 -0.11302066 -0.15388274
0.08342798 -0.060179073 -0.44433802 -0.28254116 -0.38013908 -0.23616175 -0.6651255 -0.7702257
0.3595626 0.19373019 -0.22800562 -0.05467224 0.27984723 0.015154861 -0.35571998 -0.20368975
-0.64252955 -0.4955985 -0.878719 -0.953433 -0.024527812 -0.029763022 -0.7900428 -0.21233234
-0.23562692 -0.29312396 -1.065153 -0.88357866 0.378622 0.21967246 0.29751554 0.5389567
0.9831074 1.0811367 1.1369659 1.2046866 -0.44820958 -0.5035724 0.15893777 -0.4715573
-0.36556482 -0.30568737 -0.8661404 -0.4732143 -0.4761851 -0.43714088 -0.26061857 -0.81388444
-0.75108784 -0.6089867 -0.4545634 -0.4178448 -0.0780137 -0.12824073 -0.30462947 -0.1689854
-1.5964013 -1.6021801 -1.168351 -1.229712 -0.43867192 -0.49891266 -0.7676367 -0.8418589
-0.6358564 -0.6279617 -1.0703518 -0.6503551 -0.012814936 -0.050039977 -0.46637666 -0.3054186
0.31279984 0.26571238 0.07135346 0.11460473 -0.39161327 -0.3122821 -0.70949847 -0.27712563
-0.37677523 -0.2458908 -0.6481409 -0.9511161 -0.5010876 -0.39783105 -0.7866552 -0.31640285
-1.032673 -0.9612054 -0.99933165 -0.5002424 -0.48991463 -0.3261486 -0.24649571 -0.38629904
-0.38052118 -0.34669986 -0.6544983 -0.6285399 -0.27591634 -0.26052952 -0.89033055 -0.5214176
-0.13218345 -0.11386866 -0.42166278 -0.08062074 0.35993543 0.32189578 0.13897498 0.30169383
-0.12250947 -0.16477352 -0.29206616 -0.3381159 -0.052796964 -0.11114131 -0.6448565 -0.43564066
-0.5372909 -0.5316697 -0.30786055 -0.80850804 0.1922139 0.09729205 0.053409368 0.22290547
0.40406045 0.38972175 0.31800848 0.21953125 -0.5298079 -0.5719511 -0.6980321 -0.7130542

encoder.weight_hh_l0 f4 [512, 128]
00000000: 72e2 6bbe 8e99 a6be 92b4 8d3e cc43 d7bd
00000010: 99b4 623e a640 92bd 752e 63be 1af1 bdbd
00000020: 5057 f1be 3cfe a5be 7e5a c83d da68 21bf
00000030: 3291 5a3d 7622 1f3e a404 903e 1d8c 183e
00000040: f00c 8dbe 6d2c f53d 6fa7 33be 21ec 8cbe
00000050: 8e08 20bf 89de 72be 5093 323e 67a1 babe
00000060: 0161 4d3e ea61 eb3e 94f4 a9bd f952 f73d
00000070: 834b 4bbe 54a8 59bd 877b 833e 5dcd fe3e
00000080: 5dbd 56bc 1fa8 0abd d34a 143e 8dc1 7abe
00000090: 66e2 51be a017 4cbe 02bf ad3e 8774 efbd
000000a0: 6c3b 89bc 625c b53c aea9 053f c442 093e
000000b0: dd87 6f3d f758 bebe e830 223c 7b6f fe3d
000000c0: 530b f03d 3dbf 8e3e c3b5 893e 8227 62bd
000000d0: e567 73bc 579f ba3d 1907 b63d 9719 263e
000000e0: 5c30 8abe 9c90 783e 6f4f c3bd 551b 75be
000000f0: 1509 5abe 3b23 83be 1ee4 33be 995d 47be
00000100: 9b08 183e 4089 213e 1a68 1cbe e634 57be
00000110: 8f9a 983d 79fd a33e b98c 4dbe a15c b6bd
00000120: f92d 813e dc0d 2c3e dfba 533b 02d7 4a3e
00000130: b1a4 afbd 9384 9ebe 3018 483d 859c d73c
00000140: 28bc c1bd 9cdb 653d aecd cdbd d2cc 1f3e
00000150: 2440 3a3e 0657 913d f9e8 80be a9a9 f3bc
00000160: 7cf0 2a3e 8692 a2bd ba70 8cbe dee6 ab3d
00000170: a626 abbd a6cc b9bd 333f d1bd ec5f 3abd
00000180: fd7e 4e3e d3fc f23d ab51 023f a02e 93bd
00000190: 70b4 31be 0560 933e a7c3 24bf 10be d43c
000001a0: c1a7 b23e 00c5 293e 66bd 123c dc97 1bbd
000001b0: 694b 6bbe 8d9e b13d cc20 dabc ae0b b6bd
000001c0: d008 063f bd10 5ebe 8e8b a4be bdfb a0be
000001d0: 88d3 723d 612c b4be 47ee 0b3c 56d6 0bbd
000001e0: aeaf 173e d49c 14be cf3c 9a3e e290 90be
000001f0: 23d2 95be a21f 0e3e cd21 723e 91ba bebd
00000200: 1e70 4dbc 691e 31bf b485 ae3e d6ae 1dbf
00000210: 624d b6be bcc2 74be b9bd 783a a154 d1bf
00000220: 599c 6c3f 4ff2 033d f972 3bbf 977b 7c3e
00000230: da8f 2cbf 0ab6 5c3e 4972 e3bc eeda 293e
00000240: 34be 263e 1d5e 33be f3b6 a63e 24a0 213e
00000250: 569e b33e a92d 193f 24d5 5fbd 3fbd c13e
00000260: bd4e 2f3f 7004 43be 6cd5 00bd 8065 a93d
00000270: 01da e1bd 7415 7eba 07bc be3d ffaf 00bf
00000280: 4304 0abe 20ba 4cbe 3aff b03e d061 97be
00000290: 9f65 093f 0713 3b3f cdd5 2dbf 078a 743f
000002a0: 3267 853e 0b5d 8bbd 1eb9 13bf d47c 643d
000002b0: ffd7 99bd 8010 6fbd d895 36be 55f9 a23e
000002c0: 7957 703d 70ec d8bc c71a 0abf 1b91 a93d
000002d0: 71e1 a2be 75f2 a2be 3526 323e abd3 98bd
000002e0: e472 933e dd77 14bd 778a a03e e1aa 92bd
000002f0: f0a9 b4be 7b82 3c3f 6ec7 633e 5ab6 98be
00000300: 2aa5 85be 408f d53d 3960 32be 0d0a 0abe
00000310: 3a1e c83d fe98 3a3f 7d66 823e 0d53 b33e
00000320: a049 8e3d 6130 7c3d fa23 c43e c5fb b3be
00000330: c973 0f3e a20c 033e 12a0 653e b58e 2ebe
00000340: 0a85 5ebd a862 303d 967b d3be 2701 c9be
00000350: c97f 413e 2247 503f 3f13 233f 1898 53bf
00000360: 4a33 46bf 8dd1 233f c636 dfbe 21ad 403d
00000370: eb2e 733c 5bc2 75be 377e 5dbe 6c97 bf3d
00000380: 82a0 70bd 65b0 3dbf cc4f cf3d eaa6 cf3d
00000390: 99a2 25be 9ab1 39bf 4ae0 db3e 42c4 25be
000003a0: 7188 0e3e 3bdc d4be 8e73 4c3e d0a6 e6be
000003b0: 7976 9b3e ca85 fdbe 3d54 a23e 9e51 fe3d
000003c0: 4f1f d03d 961a 223f 3b7c 6ebe ac55 ecbc
000003d0: ad00 7d3e 4ed2 883e c6f4 c03e 073a b0bc
000003e0: 360d ab3e 41a2 b73e 4a47 223e c4b8 483f
000003f0: 317b ee3e e658 4bbd e282 43bf 7ce6 bb3e
-0.23035601 -0.32539028 0.27676827 -0.10510978 0.22139205 -0.07141237 -0.2218569 -0.09274502
-0.47136927 -0.32420528 0.09782885 -0.63050616 0.053361125 0.1554049 0.2812854 0.14897199
-0.27548933 0.11971364 -0.1754434 -0.27523902 -0.62513053 -0.23717703 0.17439008 -0.36451265
0.20056535 0.4597314 -0.08298603 0.12076373 -0.19853024 -0.053139046 0.2568018 0.49766055
-0.013106671 -0.03385174 0.14481668 -0.24487896 -0.2049652 -0.19930887 0.3393479 -0.11692148
-0.016751967 0.022138778 0.52212036 0.13404375 0.05847918 -0.3717725 0.0098993555 0.12423607
0.1172091 0.27880278 0.26896486 -0.05521346 -0.014856313 0.09112423 0.088880725 0.16220699
-0.2699002 0.24273914 -0.09536635 -0.23936208 -0.21292527 -0.25612816 -0.17567489 -0.19469298
0.14847033 0.15775013 -0.15274087 -0.21016273 0.07451355 0.32029322 -0.20073213 -0.08904386
0.25230387 0.16802162 0.0032307429 0.19808581 -0.08576334 -0.3096052 0.048851192 0.026319752
-0.09459716 0.05611764 -0.10048996 0.15605476 0.1818853 0.070966765 -0.25177744 -0.029743986
0.166933 -0.079381034 -0.27429754 0.08393644 -0.08356981 -0.09072237 -0.102171324 -0.045501634
0.2016563 0.11864629 0.50905865 -0.071866274 -0.17353988 0.28784195 -0.6436104 0.025969535
0.3489361 0.16579056 0.008956289 -0.03798662 -0.22977985 0.08672819 -0.026626967 -0.088889465
0.52357197 -0.21686073 -0.32137722 -0.3144206 0.059283763 -0.35190108 0.008540696 -0.034139954
0.1481311 -0.1451295 0.30124518 -0.28235537 -0.29261884 0.13879254 0.23645706 -0.093129285
-0.012538938 -0.6918703 0.34086382 -0.61594903 -0.35605913 -0.2390241 0.000948872 -1.6353952
0.9242607 0.032213505 -0.7322231 0.24656521 -0.67407 0.21553817 -0.027764456 0.16587421
0.16283494 -0.1751637 0.32561454 0.15783745 0.35081738 0.59835297 -0.054646626 0.37839696
0.6847952 -0.19044662 -0.031453535 0.08271313 -0.11027909 -0.0009692528 0.09313207 -0.5026855
-0.13478188 -0.19992876 0.34569722 -0.29566813 0.53670686 0.7307591 -0.6790436 0.95523113
0.26055294 -0.06804856 -0.5770434 0.055783108 -0.07511901 -0.058365345 -0.17830598 0.3183085
0.05867717 -0.02647993 -0.5394711 0.0827963 -0.31812623 -0.31825605 0.17397387 -0.074622475
0.28798592 -0.036247123 0.3135564 -0.07161499 -0.35285902 0.736366 0.22244045 -0.29826623
-0.26102573 0.104277134 -0.17419519 -0.13480397 0.0977139 0.728897 0.25468817 0.350243
0.069476366 0.061569575 0.38308698 -0.35153022 0.14009012 0.12797788 0.22424343 -0.17046626
-0.054326095 0.043062836 -0.41305226 -0.39258692 0.18896402 0.8135854 0.6370124 -0.8265395
-0.7742201 0.63991624 -0.43596476 0.04704011 0.014842729 -0.23999922 -0.21630178 0.09355053
-0.058746822 -0.7409728 0.10122642 0.10139258 -0.16175307 -0.72536623 0.42944556 -0.16188148
0.13919236 -0.41574273 0.19965956 -0.45049143 0.30363825 -0.49516135 0.31704894 0.12417911
0.10162222 0.63321817 -0.23289578 -0.028849445 0.24707289 0.2672295 0.37686747 -0.021512045
0.33408517 0.35865977 0.15847507 0.7840693 0.46578363 -0.049645327 -0.76371586 0.36699283

encoder.bias_ih_l0 f4 [512]
00000000: 3646 a1be 1d15 0dbf dc98 2abe c9c6 8a3e
00000010: b5c9 75be a20f 15bf f59b 9cbe c133 86be
00000020: 963b 85be 4756 babf 9998 cbbe 34bc b2be
00000030: 781b babe 0dce 0abf ab3f bebe fdd4 77be
00000040: 6aa4 463d fa6a 25bf 4252 f7be cb31 ddbe
00000050: 48b8 e4be b6bd babe 81c9 edbe 93d1 d0be
00000060: 5007 dcbe 5f62 0abf a162 8cbf 876d d0be
00000070: 2435 88be cd3f 77be d969 2dbe ba23 02bf
00000080: da15 2e3e 1285 a1bb 46b3 08bf 7de9 5cbe
00000090: 97d1 debd 25b3 823e 2336 773f f063 b3be
000000a0: a956 c5be 958e 00bf f15d 26bf 04ae 4fbe
000000b0: a8b4 b5bf 92c4 a5be 8f00 e3be ad8b 4cbe
000000c0: 3165 5d3d 2874 bcbe 27cd b0be 18e8 cdbe
000000d0: e754 64bf 8994 9bbe 8613 0cbf 37ce 83be
000000e0: 5fd7 50be 8a4a 663e 5c6b 51be bd8c 8abe
000000f0: 988e dcbe e2c9 da3d 66a1 b63e 8220 15bf
00000100: d570 7c3f 1538 b2be d547 a9be 3425 aabe
00000110: 42d9 ddbe 0980 0dbf 1043 a9be 23fa 443f
00000120: 1952 b3be c1b9 ccbe 43de 06bf 3fe1 fabe
00000130: 85ea a4be 132a b6be e4a2 503e e123 c8be
00000140: 6b94 c1be 8187 13bf df7f 7ebd e4ec 1abf
00000150: 9976 22be b33e 08bf 14ed 02bf 526c 8dbd
00000160: b098 05bf 16d8 c4be f025 97be 0cc0 cc3e
00000170: b090 e3be c85a 2d3c 2322 40be 892b 01be
00000180: 510b 1abf 1ae5 b4be 5ffe 13bf d5ca 83be
00000190: 6c32 cabe 44cf 10bf 7212 b5be 4ed4 393f
000001a0: 6727 43bf e6b0 e1be 5f65 1c3f 7869 f33e
000001b0: 212b 07be 6b21 b3be a7a7 7fbe 1982 53bc
000001c0: cf26 09bf 0d45 d6be d61a c7be 9ae1 d03e
000001d0: 497a b23d a7d8 c0bd d48e 353f 7ff8 59bf
000001e0: 1c07 123d 5f0b dcbe 219b 89be f763 0fbf
000001f0: a53b ebbe b3c4 d53d a436 1a3d db63 bdbe
00000200: 18d9 80bf 7e8a 53be 91eb 98bf 582c 30bf
00000210: 0ded c6bf 6156 4dbf 4713 c03d 2bf8 06bf
00000220: 2cb4 60bf 07e6 29bf 0064 36bf 5f3a f9be
00000230: d74b 07be 24d2 7ebf c59d 9abe d6d0 9fbf
00000240: 8a51 a2bf 5ffa 5abf 67e9 5abf ff9c 7c3e
00000250: e2d7 97be e39f 16bf 18f2 44bf 04ad 1cbf
00000260: 4d61 e3be 030e c9be c809 27bf cee9 1ebf
00000270: f3e0 64bf 3bee b1bf 3bcc b1bf abc1 03bf
00000280: 94fb c2bf bb5d d4bf 30b8 2bbe c219 8dbf
00000290: b78c 28bd 94b9 bcbf 06fc 53bf f191 463e
000002a0: 324f 8abe d6a5 ebbe 2b30 8b3e c1bd b7bf
000002b0: 755b 5cbf b748 02be 5ef5 82be 2de1 b5bf
000002c0: 546e b8bf fb2c 6abf d5b2 f43e a910 b8be
000002d0: 55e0 49bf 2e20 143d 6252 4fbf a5eb 6dbe
000002e0: f44e 7ebf ada5 b6bf dee9 69bf 2757 65bf
000002f0: a4c4 66bc fa4e 90bf 7eeb 9fbf ba03 26be
00000300: 549d 67bf 089d 45be 91bb a2bf 3a48 7dbe
00000310: 04b8 8d3d e5b5 bc3c 6807 c93c 97d4 96bf
00000320: 526d 96bf 8470 3dbf 5133 f2be f288 2abf
00000330: cfd7 37bf db16 263e 90c3 cbbf 2bb0 8dbe
00000340: ea33 efbd fdf9 47bf 50b3 97bf 54ea 28bf
00000350: e74c d8bf f045 77bd c925 b9be 53f6 cfbe
00000360: cfe1 b8be 70ed ba3d c5bf 51bf 4725 b0bf
00000370: 7dc7 b1bf 6eb3 bbbf 0aa3 c4bf d887 ccbf
00000380: a6be 43bf f510 97bf 9e2a 983d d975 a7be
00000390: 422d 16bf cf84 d0be 68d9 33be 7f97 88bf
000003a0: 7bb5 473c a444 abbe 72a3 91bf 1d7d afbf
000003b0: 9a1c adbf 3509 6abf 99c2 19bf 5d8b babf
000003c0: bc0e 07bd c578 38be 5805 91be edcd 82bf
000003d0: d7a9 8cbf d183 cbbf b7fd 9dbf 7c69 24bf
000003e0: ee5f c1bf a520 13bf 3fa6 89bf 853a 973e
000003f0: 3017 e23d a13c 5cbf 8832 babf 5498 6ebf
-0.3149888 -0.5511034 -0.16659874 0.27104786 -0.24002726 -0.5822698 -0.30587736 -0.2621136
-0.26022023 -1.455758 -0.3976486 -0.34909213 -0.36349082 -0.5422066 -0.3715795 -0.24202342
0.04849664 -0.6461636 -0.48304945 -0.43202052 -0.44671845 -0.36472863 -0.46442798 -0.40784892
-0.4297433 -0.5405635 -1.0967599 -0.40708563 -0.26603043 -0.24145432 -0.16934909 -0.50835764
0.17000523 -0.0049291933 -0.5339855 -0.21573444 -0.1087982 0.255273 0.9656698 -0.35037184
-0.3854268 -0.5021756 -0.64987093 -0.20281225 -1.4195757 -0.32376534 -0.44336364 -0.19975157
0.05405158 -0.3680737 -0.3453152 -0.40216136 -0.8919205 -0.3038676 -0.5471729 -0.25743267
-0.20394658 0.22489372 -0.2045111 -0.270605 -0.4307754 0.10683037 0.35670012 -0.5825273
0.9860967 -0.34808412 -0.33062616 -0.3323151 -0.43329817 -0.5527349 -0.33058977 0.7694418
-0.35023573 -0.3998547 -0.52682894 -0.48999974 -0.32210174 -0.35578975 0.20374638 -0.39089873
-0.37808546 -0.5762864 -0.062133666 -0.60517716 -0.15865554 -0.5322067 -0.51143 -0.06905426
-0.5218611 -0.3844611 -0.29521132 0.3999027 -0.44446325 0.010580726 -0.18763022 -0.12614264
-0.6017352 -0.3533104 -0.57810014 -0.25740686 -0.39491594 -0.5656626 -0.35365635 0.72589576
-0.76232 -0.44080275 0.6109218 0.47541404 -0.13200046 -0.34986433 -0.24966298 -0.012909436
-0.5357484 -0.41849557 -0.38887662 0.4079712 0.0871473 -0.09416323 0.70921063 -0.851448
0.03565131 -0.42977425 -0.26876166 -0.5601191 -0.45943943 0.10437908 0.037649766 -0.36990246
-1.0066252 -0.206583 -1.1946889 -0.68817663 -1.5541092 -0.8020993 0.09378677 -0.52722424
-0.8777492 -0.6636662 -0.7124634 -0.48677346 -0.13212524 -0.995394 -0.30198494 -1.2485607
-1.2681134 -0.85538286 -0.85512394 0.24669264 -0.29656893 -0.5883772 -0.76931906 -0.612015
-0.44410172 -0.39268503 -0.652493 -0.6207551 -0.89405745 -1.3900827 -1.3890451 -0.5146739
-1.5233026 -1.6591104 -0.1676948 -1.1023486 -0.04114982 -1.4744134 -0.8280643 0.1939161
-0.27013546 -0.4602496 0.27185187 -1.4354783 -0.8607705 -0.12723051 -0.25577825 -1.4209343
-1.440867 -0.91474885 0.47792688 -0.3595021 -0.7885793 0.0361635 -0.8098508 -0.23234423
-0.9933922 -1.426931 -0.9137248 -0.8958611 -0.014084969 -1.1274102 -1.2493742 -0.16212359
-0.9047444 -0.19298184 -1.2713491 -0.24734583 0.06919864 0.023035953 0.024539664 -1.1783627
-1.1752112 -0.7399981 -0.47304776 -0.6661521 -0.7181367 0.16219656 -1.5919056 -0.27673468
-0.11679824 -0.78115827 -1.1851597 -0.65982556 -1.6898469 -0.060369432 -0.3616164 -0.40617618
-0.36109778 0.09127319 -0.8193324 -1.3761376 -1.3889004 -1.4664133 -1.5362256 -1.5978956
-0.7646278 -1.180205 0.074300036 -0.32707098 -0.5866281 -0.40726325 -0.17563403 -1.0671233
0.012189264 -0.33450806 -1.1378005 -1.3710057 -1.3524354 -0.914203 -0.6006256 -1.457378
-0.032973036 -0.1801482 -0.2832439 -1.0219094 -1.0989331 -1.5899602 -1.2343053 -0.64223456
-1.51074 -0.57471687 -1.0753859 0.29536834 0.11039579 -0.8603001 -1.4546671 -0.93201184

encoder.bias_hh_l0 f4 [512]
00000000: 92d6 a2be 4c85 04bf ce2c 8abe c5c8 a33e
00000010: 0b87 37be 55d0 dabe 797f 8fbe 9b2c 84be
00000020: 089c c8be 2c2d a9bf a4d0 cebe 87e5 60be
00000030: 2dc9 c8be 72c4 05bf ed07 f9be 1a08 58be
00000040: 15b9 843d e0db 35bf 5402 ebbe 2a65 97be
00000050: 51c7 cfbe ce7a cabe ba68 16bf a2c0 c9be
00000060: 3c5d c8be 7315 e3be 7079 83bf 1ed3 a8be
00000070: f9ea c8be 39aa babd b7c1 19be 649f f4be
00000080: bbaf 193d 8fd0 0b3b 32ac 0ebf 7beb 65be
00000090: b2f2 01be 9f4a 183e 552a 753f a3b9 92be
000000a0: eecb c4be cecd cebe 40ea 31bf ef45 8bbe
000000b0: 2b8b bfbf 44ce a2be e9e4 fcbe 40a2 26be
000000c0: ed70 343e b9a2 c2be dca4 37be 5aa4 e3be
000000d0: ae5c 84bf ad64 dbbe 72ee 14bf 1677 91be
000000e0: 3451 45be 7ca9 ab3e c02c 1fbe 5036 88be
000000f0: 3ac5 d2be 8bf1 c83d 061b 9f3e 9ebc ecbe
00000100: 022e 6a3f 7371 debe e354 78be 9669 dcbe
00000110: 783c dcbe ec94 2dbf 0d60 abbe 4df4 493f
00000120: 1130 c1be 2906 05bf 1f3b 1fbf 5a51 0ebf
00000130: ac41 d5be 996c aabe 8bfe 303e b0b4 c1be
00000140: 18eb ccbe 0fde 0bbf 2c94 18be c533 1abf
00000150: 9331 89be a560 00bf 7f2f 0fbf 2da9 2fbd
00000160: e3ca 08bf d256 06bf fd19 77be 9c04 a33e
00000170: 5671 cfbe 915d 513c 51dd 20be f8fa 6dbe
00000180: a381 12bf ea23 77be fd14 03bf 7a2e 7bbe
00000190: c59b 9dbe 5be5 0cbf 61da abbe 9ac7 563f
000001a0: 00f4 33bf d4ec b2be aaac 3a3f 2130 e23e
000001b0: 68f7 f7bd c842 9dbe 114e 85be 5ad7 3dbd
000001c0: ffe1 f6be 0082 a6be 64ca d7be 31e7 eb3e
000001d0: 75bd 58bb e477 41bd 1a58 393f 0694 31bf
000001e0: 0ecc 0b3e 93b1 cfbe 51d1 80be 17c7 febe
000001f0: b840 f7be 63e0 3b3e 53cf d93d ee0a dbbe
00000200: 257a 6fbf 2d72 a4be 35bd 85bf dbe5 22bf
00000210: 7704 b8bf 6a99 5bbf 90f6 283e 5f6a 0ebf
00000220: be14 6abf ec3d 1bbf 93bf 3fbf 031d ecbe
00000230: eba9 383c a888 88bf 600c a5be 036e a2bf
00000240: 9c80 99bf c16a 48bf e8f6 56bf 1fbd a23e
00000250: bfeb 69be 7898 10bf e894 46bf 3bd8 22bf
00000260: 0617 e6be 41d1 bfbe 53bf 3abf 504c 27bf
00000270: 8d33 5ebf 1ee1 b2bf 425e b4bf 8b43 10bf
00000280: d1a5 bfbf 61de cfbf 971e 47be 3533 8abf
00000290: c1bc b13c df4f babf 5c28 3cbf a310 7c3d
000002a0: c49b 94be 2013 e5be 6560 a03e 06e1 a7bf
000002b0: cf75 3abf f8cf 2ebe 74c3 bdbe f0e0 b3bf
000002c0: 0cbe b4bf b4aa 6abf 7bda cf3e 127a cfbe
000002d0: 2c36 40bf 9cee 123d c3f8 51bf 9392 6cbe
000002e0: 2faa 67bf 8f0e b0bf e38f 81bf 86e7 64bf
000002f0: 762b 19be 09a0 95bf f375 96bf 1a53 64be
00000300: f0d8 75bf 616b b5be 2fe2 8dbf c15f 38be
00000310: d085 003e 523f 1d3e 0b1d edbd 004a 88bf
00000320: 6251 92bf 9ed1 37bf 2fe1 0dbf 3067 21bf
00000330: 56c1 2bbf 18a2 003d 24fe c5bf 2d00 89be
00000340: e6a5 1abd 85c2 35bf b120 9abf 6c09 32bf
00000350: 2abd c7bf 6e48 be3c d95b e4be e738 afbe
00000360: bf44 02bf 333c 043d 1b58 5dbf 67fa b4bf
00000370: 9061 bbbf a999 c8bf 2ac1 b7bf 5b71 dbbf
00000380: f418 45bf c221 99bf e8af 9e3d 6ce3 8abe
00000390: 356b f6be e330 f4be 1dc1 87be 516a 87bf
000003a0: 6f8b 40bd 4d5a 9fbe a07a 88bf 7180 b6bf
000003b0: 1332 a3bf 2dcb 43bf 40c7 08bf 94e6 b1bf
000003c0: e86f 9ebc aca4 cebd 0745 adbe 0bf6 89bf
000003d0: 9f80 8bbf e7d1 cbbf 32e1 94bf 33e9 15bf
000003e0: d5b2 bebf 62e9 17bf 37e4 92bf 9a65 d33e
000003f0: 84b0 1a3e 7d98 78bf 72f1 cabf 32be 85bf
-0.3180433 -0.51765895 -0.26987308 0.31989112 -0.17922609 -0.4273707 -0.2802694 -0.2581528
-0.39181542 -1.321691 -0.40393555 -0.21962558 -0.39215985 -0.52252877 -0.4863886 -0.2109684
0.06480614 -0.7103863 -0.45900214 -0.2956937 -0.40581754 -0.39546818 -0.5875355 -0.3940478
-0.39133632 -0.44352302 -1.0271435 -0.3297357 -0.3924177 -0.09114499 -0.15015303 -0.47777855
0.037521105 0.0021334027 -0.557315 -0.2245311 -0.12690237 0.14872216 0.9576772 -0.28657255
-0.38436836 -0.40391392 -0.6949806 -0.27201793 -1.4964346 -0.31797993 -0.49393395 -0.16272831
0.17621203 -0.38014773 -0.17933983 -0.44461328 -1.0340784 -0.42850247 -0.5817634 -0.28411168
-0.19269258 0.33527744 -0.15544415 -0.26603937 -0.41166097 0.09811696 0.31075305 -0.46237653
0.9147645 -0.4344593 -0.24251132 -0.43049306 -0.43014884 -0.6780536 -0.33471718 0.788884
-0.37731984 -0.51962525 -0.62199587 -0.5559288 -0.41651666 -0.33285978 0.172846 -0.37833166
-0.40023112 -0.5463571 -0.14900273 -0.60235244 -0.26795635 -0.5014747 -0.5593185 -0.042885948
-0.5343458 -0.5247623 -0.24131007 0.31839454 -0.40516156 0.012778656 -0.15709426 -0.23240268
-0.5722906 -0.24134794 -0.512039 -0.24529448 -0.30782905 -0.5503747 -0.33565047 0.8389832
-0.7029419 -0.3494631 0.72919714 0.44177344 -0.12107736 -0.30715013 -0.26036122 -0.046347953
-0.48219296 -0.32521057 -0.421466 0.46074823 -0.003307191 -0.047233477 0.7240006 -0.6936649
0.1365206 -0.40565166 -0.25159696 -0.49761268 -0.48291564 0.18347315 0.10635247 -0.42781776
-0.9354575 -0.3211836 -1.0448366 -0.6363198 -1.4376363 -0.85780966 0.16500306 -0.5563106
-0.914379 -0.6064136 -0.74901694 -0.46115884 0.01127098 -1.0666704 -0.32236004 -1.2689823
-1.1992373 -0.78287894 -0.839705 0.31784913 -0.22843836 -0.5648265 -0.7757096 -0.6361119
-0.4493944 -0.37464336 -0.7294819 -0.6535082 -0.8679741 -1.397495 -1.4091265 -0.5635306
-1.4972478 -1.623974 -0.19445263 -1.0796877 0.02169645 -1.4555625 -0.73499084 0.061539304
-0.2902509 -0.44741154 0.31323543 -1.3115547 -0.7283601 -0.17071521 -0.3706318 -1.405302
-1.4120498 -0.9166672 0.40596375 -0.4052282 -0.7508266 0.035872087 -0.82020205 -0.23102789
-0.90494055 -1.3754443 -1.0122036 -0.89415777 -0.14957985 -1.1689464 -1.1754745 -0.22297326
-0.96034145 -0.35433486 -1.1084651 -0.18005277 0.12551045 0.15356186 -0.11577805 -1.0647583
-1.1431086 -0.71804225 -0.5542173 -0.63048077 -0.6709188 0.031404585 -1.5468183 -0.26757947
-0.03775587 -0.7099994 -1.2041227 -0.69545627 -1.5604603 0.023227897 -0.44601324 -0.342231
-0.5088615 0.032283973 -0.86462563 -1.4138917 -1.4639149 -1.5671893 -1.4355824 -1.7143968
-0.769912 -1.1963427 0.07748395 -0.27126634 -0.48128667 -0.47693548 -0.2651452 -1.057932
-0.047007974 -0.31123582 -1.0662422 -1.4257947 -1.2749656 -0.76481897 -0.5342903 -1.3898492
-0.01934047 -0.100900024 -0.33841726 -1.0778211 -1.0898627 -1.5923432 -1.1631224 -0.5855896
-1.4898325 -0.5934049 -1.1475896 0.41288453 0.15106398 -0.9710768 -1.5854933 -1.0448668

encoder.weight_ih_l1 f4 [512, 128]
00000000: 56ae f33e 5f58 4b3e 9c54 f9be db23 2b3f
00000010: 4836 a2be 9a17 b43e 9a67 2b3e 0773 ac3d
00000020: bd46 cf3e f1e1 b43e 8434 49be 9558 71be
00000030: 337b d3be c605 e03d d78e 5bbe eda8 0cbf
00000040: c0f2 013f ff46 183d 2b43 413f e580 aa3e
00000050: aa09 2d3f b7a4 143f 3a9a 2cbf 621a be3e
00000060: 853a a2be 65f1 3ebe f804 1b3e 92d0 04be
00000070: f541 013f fe25 8c3e ffe4 ecbe 6d40 d7bc
00000080: ff63 bdbc b7e5 4f3e 3a73 d03d 115a 653e
00000090: ce5e 853e c0e7 0f3f 13bf c2be 46cb 813e
000000a0: f52d aa3e 7218 bebe 1f74 39bf 8df7 333e
000000b0: f204 57be f4d0 9a3c 8910 ec3d 4ebe 5cbe
000000c0: 24d9 22bf ef8d 5abe e5bf a43c 8fe4 db3e
000000d0: a30e 183f b9b9 bebe 228d c23d 595d 29be
000000e0: cc5c 123f 3013 80be 18b6 54be 2844 bc3e
000000f0: 649f 3d3d c666 0a3f b8ad 7fbc cfc4 883d
00000100: 4fd0 08bf 3801 4e3d 2b03 f63e 31e1 953e
00000110: fb0e 25be f7df 19bd 11b3 b13e 13ef eb3e
00000120: 61b4 13bf 0b7f 1abf 2fa2 3b3d 3524 99be
00000130: cdfa a73d e170 743e 420a 19bd b0cb 8cbe
00000140: 088d d7bd f227 f5be fb93 8b3e 0753 9bbe
00000150: ed37 d6be a1cc 13bf 8295 013f a0ec 713d
00000160: 4a21 d7be a486 973e 1e60 b43e ab07 ad3e
00000170: 8ab8 473e ce37 403e 7d64 113f 121e 683d
00000180: b7be e0be a454 e8bc 2cae ebbd 4f01 1f3d
00000190: 173e b03e 3f4a cabe 296a 473e ca51 983e
000001a0: 5f92 44bf 8a96 37bf 63ea 9c3e e823 de3e
000001b0: 6410 863e 3776 21bf 26cb 193d 4587 ad3e
000001c0: 343e e1be f385 5d3f 4ffd 913e 6f6d aa3c
000001d0: 5e5c 33bf 8748 113f 4725 0f3c 0169 ab3e
000001e0: 8052 2dbf c94c d43e 6c80 a8be 2182 683e
000001f0: d204 b93e e211 4e3d cc98 0ebd f608 72be
00000200: f1c4 a0be 6fdb 903e 4965 503e 1c48 de3e
00000210: 0e58 da3e 3aea a6bd 174c a13e cfd4 a63e
00000220: 4086 7cbe 30d3 eb3d 04d9 213e 1d06 a93d
00000230: 2e38 ff3e 3a72 b43e 00e2 3fbe 0f6a 803e
00000240: 81d8 d0be 08d7 dcbe 6b33 16bf 15dd 91bd
00000250: 3896 ab3e da57 2abf 876a b13e b111 a6bd
00000260: 31ca a5be 85d3 9b3d 1e84 e93e 5c71 7bbe
00000270: a7b7 7ebe b96e edbe 1802 ef3e 02c9 923c
00000280: cb5d 90be 4d4e 8bbe 5540 333d 705c 52be
00000290: 0b8f 373e 4730 f1be 2d0b 1b3f d777 79be
000002a0: cc5a 1dbf ff69 4b3d 5baa dd3d 100a dc3e
000002b0: a030 dbbe 7bb8 9b3e 315a 193e 161c c13e
000002c0: 0d33 e0bc 9342 bf3d 1307 c3be b534 5dbe
000002d0: 05f8 883e 4d31 b13e 752c 0dbe 3e82 983e
000002e0: 308e 80be 8bd5 9a3e e4b3 b9be 0cf9 99be
000002f0: e3de 453e 47d8 29bf d870 a6bd 4ec6 d93e
00000300: f9e3 6d3e 1cd1 07bd b58a 1fbf 9a02 023f
00000310: 4d4c 79be c07d a63b 5147 ffbe d3b2 d3be
00000320: 1b1d e13e c580 d03e d51a e7be 3717 4f3d
00000330: a00a 123d 88ae 373e 3cea 813e 859d 8e3e
00000340: 8c41 243e 6de6 44bd 67c2 71be 1a44 06be
00000350: d7a1 db3e 5bf3 11bf 3f32 57bf 1e0f 9e3d
00000360: 1685 3f3f 0df5 2dbf d9fb 65be 1def b1be
00000370: 22fb a2be f433 25bf 8479 5c3e ce3c c2be
00000380: 1dc2 8fbd 0353 4d3f e064 d1bd 0fe8 803e
00000390: 54ea 4f3e add7 803e 2f01 f9bd 6f78 ccbe
000003a0: 038d b7be 8514 183e 885c 34bf dc65 3fbe
000003b0: 24f4 c1be ed15 b8bd a368 1b3e b5b5 64be
000003c0: d60e c3be b8ff 53be 338a 8b3e 556d 213e
000003d0: 795b aa3e 52c3 a2be a124 c8be 6830 b5be
000003e0: 6835 a5be a3b1 5cbd cff4 8dbd b734 133d
000003f0: a3a2 913e da58 92be 0128 403f ebef e1be
0.47593945 0.1985793 -0.48697364 0.66851586 -0.31682038 0.35174257 0.1673874 0.08420377
0.40483657 0.3532863 -0.1964894 -0.23568948 -0.4130493 0.10938601 -0.21441208 -0.5494526
0.5076103 0.037177082 0.75493115 0.33301464 0.6759287 0.58063835 -0.6742283 0.37129503
-0.31685272 -0.18646772 0.15138614 -0.12970188 0.5049127 0.27372736 -0.4626846 -0.026275838
-0.02311897 0.20302473 0.10178228 0.22397639 0.26048893 0.56213 -0.38036403 0.25350398
0.33238187 -0.37128025 -0.7244281 0.17574902 -0.2099798 0.018898465 0.11526591 -0.2155697
-0.6361258 -0.21343206 0.020111034 0.42947814 0.59397334 -0.3725107 0.09499575 -0.16539516
0.57172847 -0.2501464 -0.20772588 0.3677075 0.046294585 0.5406307 -0.015605383 0.06678163
-0.53442854 0.05029413 0.48049292 0.2927337 -0.16118996 -0.037567105 0.3470693 0.46080837
-0.5769711 -0.603501 0.045808967 -0.29910436 0.08202133 0.23871185 -0.0373633 -0.2749915
-0.105249465 -0.47882038 0.27261338 -0.30336782 -0.41839543 -0.57734114 0.50618756 0.059063554
-0.42017585 0.2959491 0.35229582 0.33794913 0.1950399 0.18771288 0.5679396 0.056669302
-0.43895504 -0.028360672 -0.1150783 0.038819607 0.3442237 -0.3950977 0.1947409 0.297499
-0.76785845 -0.7171408 0.30647573 0.4338677 0.2618438 -0.63071007 0.037547253 0.33892265
-0.4399277 0.86532515 0.28513572 0.020804135 -0.70062816 0.5675129 0.008736915 0.3347855
-0.6770401 0.41464832 -0.32910478 0.2270589 0.3613649 0.050310023 -0.034813687 -0.23636231
-0.31400254 0.28292415 0.20351137 0.4341439 0.42645305 -0.08150144 0.31503364 0.32584235
-0.24660587 0.1151489 0.15805441 0.08253119 0.4984755 0.35243398 -0.18738556 0.25080916
-0.4079018 -0.43132806 -0.5867221 -0.07122246 0.33513045 -0.665403 0.34651586 -0.08108843
-0.32380822 0.076087035 0.4560861 -0.24554962 -0.24874745 -0.46373537 0.46681285 0.017918114
-0.28196558 -0.27208176 0.043762524 -0.20543075 0.1792566 -0.47107145 0.6056393 -0.24362122
-0.6146667 0.049661633 0.10823508 0.42976427 -0.42810535 0.30414185 0.14975812 0.3771674
-0.027368093 0.0933887 -0.38091335 -0.21602137 0.26751724 0.34607926 -0.1378649 0.29786867
-0.2510848 0.30241045 -0.36270058 -0.3007282 0.19323306 -0.6634564 -0.08126992 0.42534107
0.23231496 -0.033158407 -0.62321025 0.5078522 -0.24345513 0.0050809085 -0.49859098 -0.4134737
0.43967518 0.40723243 -0.4513766 0.05055925 0.035654664 0.17937672 0.2537402 0.27854553
0.16040629 -0.048071314 -0.23609315 -0.13111916 0.42896912 -0.57011956 -0.84061044 0.07717727
0.7481245 -0.6795204 -0.22459354 -0.3475274 -0.31832224 -0.645324 0.2153073 -0.37937015
-0.07019446 0.8020479 -0.102243185 0.25177047 0.20304233 0.25164548 -0.12158429 -0.39935634
-0.3584977 0.14851578 -0.7045369 -0.186912 -0.37881577 -0.08988557 0.15176634 -0.2233494
-0.38097256 -0.20703018 0.27253875 0.15764363 0.33272913 -0.31789643 -0.39090446 -0.35388494
-0.32267308 -0.053880345 -0.06931459 0.035938945 0.28444394 -0.28583413 0.7506104 -0.44128355

encoder.weight_hh_l1 f4 [512, 128]
00000000: e916 9bbd a798 82be b368 46bf e3df d73e
00000010: 9b21 41bf 2d3d c3be ef78 07be e362 b13e
00000020: 06a1 46bc 4d76 2fbd 6439 02bf 87b7 ab3e
00000030: 30cc 063f b6e4 f9bc c9c6 acbc 80ae c53e
00000040: 7f44 43bd 79c6 87bf 4161 8dbe b72c c53d
00000050: 253c b33e 1bba 263f 9e37 cf3e 61ce 2c3e
00000060: b055 993d 328f 7cbf 8d29 62be 00ef e7bd
00000070: ae91 88be 8156 da3d f2c8 25be 8993 053e
00000080: 25b4 883e 83a3 97bb cf88 60bd 8528 c33f
00000090: 2349 12bf ca20 d43c 8a40 8a3e b580 ba3e
000000a0: af00 29bf 5357 56be 2cf5 583e 102c 20be
000000b0: 11d1 34bf 1810 ca3c 0091 afbd 03af 5fbe
000000c0: 99c3 ebbd d3b4 323f 86c2 413e d802 3cbe
000000d0: 2c48 033e 0d56 8d3e bbb5 17bd 467e 713f
000000e0: 7e0b 8b3d de1d 3ebf 381a 4a3e ea56 fcbe
000000f0: 5dcf 2b3f 8e3f d13d 43f0 d7bd 5b9a a93d
00000100: 3438 af3e 7abc 883e 3980 9fbe 7d1d 9cbe
00000110: 1bd5 f2be b176 0d3e 0e51 353e f134 8abe
00000120: a70f 3d3d 52e9 a83e 5035 dbbe a1ee c43e
00000130: 895f 6a3d 3ed3 07be 9c3c 81bf 9714 013f
00000140: fd92 a53d 96ca 863f c38a 81be 9acb acbe
00000150: a877 7e3e 904c 883e 45b3 94be 63a6 49be
00000160: fb3b 843e 30f8 b03e 8b03 a1be 4039 123f
00000170: 0b4d 983d 2d54 a1bd 1f1e 41bf a292 3fbd
00000180: da4d e63e ffa2 4a3e f030 433e 01c0 cfbe
00000190: 36f3 c63e 8ac8 073f e681 11bf f544 28bf
000001a0: 8f78 82be 875c 11bf 9b28 233d e22d cb3d
000001b0: 8c7b 923e d6c9 03bf 07bc 053e 65bf 1d3e
000001c0: 44a8 74be 3b00 343f dbc5 3abf d88f abbe
000001d0: 4604 21be 9315 1ebf dade 063d cfcf 493e
000001e0: 4aae a4be c1a7 1b3e 09ba c0be 30ea 393d
000001f0: 95eb dfbe 1f49 2c3f 3a90 1dbf 1a3d 9ebe
00000200: 8b4c 7abe 0436 443e 2eda 493d bbcf 3c3e
00000210: 3993 13be 4ba2 b43e f2eb 7ebe 3c9c 353f
00000220: ac57 9cbe 668f 4e3e b0a5 d33d 3a83 003f
00000230: 238d 93bd a878 1ebf 4d0b 913e 1de5 b33e
00000240: 7d6c a6be 137a e83e 926b 113f b591 d23e
00000250: fd4d 303f a7e8 753e 4ea7 87bf 28c5 123f
00000260: 3ac8 adbe 0644 4fbe 70a8 9a3d 64de 003f
00000270: 1ac3 29be c0e1 413f c243 75bc 8a04 3cbf
00000280: 3dea b4be 1b37 223f 0ab0 873e 4dbb 433f
00000290: 20ee e63d bc3c d63f 9161 7b3e c50e eb3e
000002a0: 6d0a a7be 7289 e2bd ed4e 66bf 5617 8dbe
000002b0: f195 773e 41d3 983e 73e0 90be 3201 0abf
000002c0: d3ed 2d3e dd9c 173d ff5e ac3e d498 b53d
000002d0: b57a 24bd 7292 b43c 0e74 a73b aef8 3bbf
000002e0: fa62 bc3e 5048 04be 4809 583e 0af4 a23e
000002f0: 7592 033f f1cf 973e 90e2 34bf be32 253e
00000300: 0119 593e 7399 18bf a087 fa3e ea7a 78bf
00000310: 6cae debe b41d c2be 61f8 73be 0f2c c4bd
00000320: c222 ea3e 42cf 84be c6d6 39bf b811 f3be
00000330: 89a7 a23e 3929 323d 769d 8bbe c7d1 e3be
00000340: fd0f 963e ef4c aebe fea5 99be d410 7ebf
00000350: 503d 04bf baa4 54be d800 0f3e a4fa 853e
00000360: 191f 34be cc66 043f d776 86be 71ae 933b
00000370: c0ff 123f 2cab 02bf e690 cabd 1526 49bf
00000380: bc1a e23e 9cf5 34be 76b8 f03e 14f9 63bc
00000390: 48f4 44bd 812b 14bf ba1a 05be aefa 37bf
000003a0: a726 45be b0e5 a3be 7e83 19bf 1b8e f43c
000003b0: 4cf8 d5be 171a 8d3e 1c2b 013d c6f7 83be
000003c0: eca2 5fbe ade3 be3d 379b 893d cf40 6bbe
000003d0: 441b 253e 25e6 b8be 675d e43d 261d c63e
000003e0: abe6 98be e294 0c3f 4401 773d fbc6 03be
000003f0: d7bc 16bf de2d 3d3f 0515 febc 7039 ee3e
-0.07572729 -0.2550709 -0.7750351 0.42163 -0.754419 -0.3813261 -0.13229726 0.34645757
-0.012123352 -0.04283743 -0.5086882 0.33538458 0.52655315 -0.030504566 -0.021090882 0.38609695
-0.047672745 -1.0607444 -0.2761326 0.09627669 0.35006824 0.65127724 0.4047212 0.16875602
0.07487047 -0.98656 -0.22086163 -0.113248825 -0.26673645 0.106610306 -0.16189936 0.13044561
0.2669994 -0.0046276464 -0.05481797 1.524674 -0.5714285 0.025894541 0.27002364 0.3642632
-0.6601667 -0.20931749 0.21187276 -0.15641809 -0.7063151 0.024665877 -0.085725784 -0.21844105
-0.11511917 0.69807166 0.18921861 -0.1836046 0.128205 0.27604714 -0.037038546 0.943333
0.06789301 -0.74264324 0.19736564 -0.4928506 0.67113286 0.102172 -0.10543873 0.08281394
0.34222567 0.26706296 -0.31152514 -0.30491248 -0.47428212 0.13814808 0.17706701 -0.26993516
0.046157505 0.3299051 -0.42814112 0.3846331 0.057220016 -0.13264176 -1.0096622 0.5042204
0.080846764 1.0530574 -0.2530118 -0.33749086 0.24850333 0.26620913 -0.29043022 -0.19692378
0.2582701 0.34564352 -0.31448016 0.57118607 0.0743657 -0.078773834 -0.75436586 -0.0467707
0.4498127 0.1978874 0.19061637 -0.40576175 0.3885743 0.53040373 -0.56838834 -0.6573022
-0.25482604 -0.5678181 0.039833646 0.09920861 0.28609884 -0.5147985 0.13060008 0.15405042
-0.23892313 0.7031285 -0.72958153 -0.33508182 -0.15724286 -0.6175167 0.03292737 0.19708179
-0.32164222 0.15200712 -0.37641934 0.045389354 -0.43734422 0.67299074 -0.615482 -0.30905992
-0.24443261 0.1916123 0.049280338 0.18438618 -0.1441163 0.3528007 -0.24894693 0.7094152
-0.30535638 0.2017189 0.10334337 0.50200236 -0.07204654 -0.61902857 0.28328934 0.35135737
-0.32504645 0.45405635 0.56804764 0.4112679 0.68869 0.24014531 -1.0597932 0.57332087
-0.33941823 -0.20240793 0.07551658 0.5033934 -0.16578332 0.7573509 -0.014969768 -0.73444426
-0.3533496 0.63365334 0.26501495 0.76457673 0.112758875 1.6737285 0.24548937 0.45909706
-0.32625142 -0.11061372 -0.8996418 -0.27556866 0.24178292 0.29848674 -0.2829624 -0.53908074
0.16985254 0.03701483 0.33666226 0.0886704 -0.040156085 0.022042487 0.0051102703 -0.7342633
0.36794263 -0.1291821 0.2109729 0.31826812 0.5139535 0.29650834 -0.70658207 0.16132638
0.21200944 -0.59609145 0.489316 -0.9706255 -0.43492448 -0.37913287 -0.23825218 -0.09578716
0.45729643 -0.25939375 -0.72593343 -0.47474456 0.31768444 0.043496344 -0.2726857 -0.44495985
0.29309073 -0.3404307 -0.30009454 -0.9924443 -0.51656055 -0.20765963 0.13965166 0.26167786
-0.17589988 0.51719356 -0.26262543 0.004506879 0.57421494 -0.5104244 -0.098909184 -0.78573734
0.44161022 -0.17671818 0.47015733 -0.013914365 -0.048084527 -0.5787888 -0.12998477 -0.7186688
-0.19253026 -0.32011175 -0.59966266 0.029852917 -0.41790998 0.27558967 0.031535253 -0.25774974
-0.21839494 0.093207695 0.06719058 -0.22973941 0.16123682 -0.36113086 0.111506276 0.38694113
-0.29863486 0.5491468 0.06030394 -0.12868874 -0.58881897 0.7389811 -0.031015882 0.46528196

encoder.bias_ih_l1 f4 [512]
00000000: d638 07bf d3b7 d0be 10b3 41bf 0ddc 3fbf
00000010: 93c4 b6be 059f 5cbf b431 5ebf 626f 03bf
00000020: dce9 a5be cc9a 47bf 1ddd f8be aac2 eabe
00000030: bc05 85bf 4761 98bf 66fc 6abf d53f 7fbf
00000040: d0cb 81bf aa83 7abe a43f 48bf d54c 23bf
00000050: bb01 59bf 8a58 5dbf d233 8dbe c3e2 2ebf
00000060: 1934 4fbf dbb6 26bf 22ba b6bd 14f3 31bf
00000070: a9f0 e1be bffb 51bf 63b4 93bf f05e 2fbf
00000080: 40cb 88bf 242d 18bf b5da 2dbf 8305 7fbf
00000090: fc16 13bf 0d9e e4bc 4488 a6be 7cb1 0ebf
000000a0: c91a 72be 6bef 74bf 3b92 1fbf 5e47 f3bd
000000b0: c9a5 5cbf 8f89 f1be 58d4 79bf c439 95be
000000c0: 95ad 7bbf 7542 61bf ec96 87bf 3df1 6dbf
000000d0: cee0 35bf 6928 223c aac4 84bf 3f95 3bbf
000000e0: 194c 81be 1a76 41bf 834a 0fbf 985f 0dbf
000000f0: f729 14bf 73b2 01bf e464 3bbf bac2 45bf
00000100: eae8 83bf dd9e 91be f2f3 1cbf d1d6 6ebf
00000110: d3ec 5abf dce0 97bf 785d 81be 30f4 0ebf
00000120: b7e4 4abf 61b5 bebe d8d3 3fbf d529 4ebf
00000130: 614c febe 4c14 36bf 1d9d 84bf 128b a93d
00000140: 1e7f 8bbe e7d3 69bf c864 27bf e5b9 13bf
00000150: eec8 38bf 7f53 2dbf 0b70 86bf 2678 94bf
00000160: 2c23 50bf 0979 7cbf f5c1 83bf fb9e 20bf
00000170: 2c77 57bf f9ea 4fbf 2028 0cbf face 10bf
00000180: f6cf a9be 2734 7dbf 1afb c0be a074 33bf
00000190: 7660 6dbf e455 86be 4a15 37bf a692 d3be
000001a0: 5acb 7dbe 144b 8abf f7c9 18bf f360 73bf
000001b0: e1c3 083f 7898 4cbf f04f b73c 8f7b cebe
000001c0: 5cf2 2abe 60fa 36bf 0588 81be 3b93 49be
000001d0: 38ff 2bbf 08bd 64bf 9733 20bf e390 4dbf
000001e0: 0dcf 19bf baf3 3fbf c265 56bf e860 62bf
000001f0: 6596 4dbe 435e e9be 4bd4 1ebf 334c 3bbf
00000200: 76cc c6be 7e9b 053f ef97 10bf 2934 7bbe
00000210: 8a1e d63e cf6f a4bd 0434 00bf dd53 a7bd
00000220: 1a8f 7d3c 4e55 edbd 4a1c 953d 6464 04bf
00000230: 655c 63bf fec6 cabe 9c19 abbd 7912 d8be
00000240: 0db2 9fbe 5435 81be 35ea 8f3e cf9b 11bf
00000250: d304 1cbf 74f6 8fbe c25f 1fbf 044a d1be
00000260: c5e5 ecbe 78b1 fcbd 8eaf 1e3e 5af2 07be
00000270: d1e5 b83e bbef acbe cc0b 81bf adcb 31bf
00000280: 124b bfbe 307e 983d 3a4f 0abe 58f3 18bf
00000290: 1d3d a1be dc49 22bf 0559 d73e b8f8 43bd
000002a0: 53df 4a3e e5c6 c5bc 35ff bdbd 85cf 95be
000002b0: 362b d9be 9c04 88be 5815 3ebf fa7f bf3e
000002c0: b921 64bf 73f3 9abd f1b1 5bbe 4753 6cbe
000002d0: 03e0 71bd 7199 a0be 5719 94be 6fbd 02bf
000002e0: eaff 153d 5020 debe f6f2 16be d04c febd
000002f0: f43b e1be 4488 58bf 2342 48bf 9baa acbe
00000300: 0a00 8e3e e5f9 183f ccfd 58be e0f8 4fbe
00000310: 9bf3 4fbd b9fb d7be 7aa1 8e3e c94f 8e3d
00000320: 4ae0 54be 4eed dcbd f28f e9be 259e e1be
00000330: 78f4 c03a 7735 993e fd26 0bbf 71f7 1abe
00000340: ef18 10be bfc5 a0be 6f2d a33e a574 d1bd
00000350: a28d ec3d df58 aabe 4980 a03e c0ba 18bf
00000360: c563 07bf 3c68 74be 516b 62be b393 c6be
00000370: 9d52 7dbe 98ff d43e 88d7 81bd 8f7c 47be
00000380: e8fd 0d3e 2a5d a4be f333 ccbd 0749 8ebe
00000390: da91 96be 834d c83d 23c0 6f3e c5de f03d
000003a0: b377 ce3e 3b05 bcbe eabc 543e ed68 44be
000003b0: ddcc c1be 71ee 72bd 40c9 99be c405 05bf
000003c0: aa20 083f 9fb9 9ebe 3d03 8bbc 7dc1 a03e
000003d0: 4a39 b53e ea32 52bd 65ee 83bd e053 44bf
000003e0: 8601 afbd f38d 44bf 90db aabd 4a24 16be
000003f0: f978 a2be 067c 323e 0e56 cabd f73b d03c
-0.528211 -0.40765247 -0.7566385 -0.74945146 -0.3569685 -0.86180145 -0.8679459 -0.5134183
-0.32404983 -0.77970576 -0.48606196 -0.45851642 -1.0392375 -1.1904687 -0.9179138 -0.99706775
-1.0140324 -0.24464288 -0.7822211 -0.6378911 -0.84768265 -0.86463225 -0.27578598 -0.6831476
-0.8093887 -0.65122765 -0.08922221 -0.6951153 -0.44128922 -0.8202476 -1.1539425 -0.6850424
-1.0687027 -0.5944388 -0.67911845 -0.99617785 -0.57456946 -0.027907396 -0.32525837 -0.5573957
-0.2364303 -0.9567782 -0.62332505 -0.118788466 -0.8619047 -0.4717526 -0.97589636 -0.29145634
-0.9831174 -0.8799203 -1.0592933 -0.92946225 -0.7104615 0.00989733 -1.0372517 -0.73274606
-0.2525337 -0.75570834 -0.5597307 -0.5522399 -0.57876533 -0.50662917 -0.7320082 -0.77250254
-1.0305455 -0.28441516 -0.6130973 -0.93296534 -0.85517615 -1.1865497 -0.25266623 -0.5584135
-0.7925524 -0.37247756 -0.7493262 -0.8053258 -0.49667647 -0.7112472 -1.0360447 0.08278479
-0.2724542 -0.9133896 -0.65388155 -0.5770553 -0.72181594 -0.6770553 -1.0502943 -1.1599166
-0.8130367 -0.98622185 -1.0293566 -0.62742585 -0.84166217 -0.81217915 -0.54748726 -0.5656582
-0.33166474 -0.98907703 -0.37691575 -0.7009983 -0.9272531 -0.26237404 -0.7151686 -0.4132282
-0.24784604 -1.0804162 -0.59683174 -0.9506981 0.5342389 -0.7992015 0.022376984 -0.40328643
-0.16694015 -0.7147579 -0.25299087 -0.1968507 -0.6718631 -0.8935094 -0.6257872 -0.80299205
-0.6008156 -0.7498127 -0.8374902 -0.8842912 -0.20076902 -0.45579728 -0.62042683 -0.73163146
-0.38827866 0.5219039 -0.5648183 -0.24531616 0.41820174 -0.08029138 -0.5007937 -0.081702925
0.015476013 -0.11588536 0.07280786 -0.51715684 -0.8881286 -0.39604944 -0.08354494 -0.42201594
-0.3119053 -0.25236 0.28108373 -0.5687837 -0.6094486 -0.28117716 -0.6225549 -0.40876782
-0.4626905 -0.12338537 0.15496656 -0.13276044 0.36112836 -0.3377665 -1.0081725 -0.6945141
-0.37361962 0.07445943 -0.13506785 -0.59746313 -0.31491938 -0.6339395 0.42060104 -0.04784462
0.19811754 -0.024142692 -0.092771925 -0.29259887 -0.4241578 -0.26566017 -0.7425132 0.37402326
-0.89113957 -0.075659655 -0.21454598 -0.23078643 -0.059051525 -0.31367067 -0.28925583 -0.510703
0.03662101 -0.43384027 -0.1474112 -0.124169946 -0.43991053 -0.84582925 -0.78225917 -0.33723912
0.27734405 0.5975631 -0.21190566 -0.20309782 -0.05076943 -0.42184237 0.27857572 0.069488116
-0.20788684 -0.1078745 -0.45617634 -0.44065967 0.0014721295 0.29923603 -0.54356366 -0.15133454
-0.14072011 -0.31400868 0.318706 -0.10227326 0.11550452 -0.33270928 0.31347874 -0.5965996
-0.5288661 -0.23867887 -0.2211125 -0.3878456 -0.24738546 0.41601253 -0.063399374 -0.19481109
0.13866389 -0.3210233 -0.09970846 -0.2779009 -0.2940815 0.09780409 0.23413138 0.1176124
0.40325698 -0.3672274 0.2077519 -0.19180651 -0.3785161 -0.059309427 -0.30036354 -0.5196192
0.5317484 -0.31000993 -0.016969318 0.3139762 0.3539527 -0.051318087 -0.064419545 -0.76690483
-0.085452124 -0.767791 -0.083426595 -0.1466228 -0.3173292 0.17430124 -0.09879695 0.025419218

encoder.bias_hh_l1 f4 [512]
00000000: 1215 e9be 4b0e 8abe 2118 55bf 95ea 26bf
00000010: a07c f2be 496d 71bf a704 6fbf 2fd4 09bf
00000020: ec19 88be b5b8 54bf 59d6 06bf 4eb4 febe
00000030: bf47 6dbf 7405 95bf d4ac 4ebf 65c8 7ebf
00000040: 9cf1 7ebf 25bf 9abe 8e30 59bf 92e1 23bf
00000050: 9a82 64bf 7df1 58bf fcb9 26be 0105 3cbf
00000060: 4cd7 43bf 7b4c 2dbf 13bd 53be b0bb 31bf
00000070: d3ed bebe 43e6 37bf e7c5 91bf e791 27bf
00000080: 85ff 8dbf 3547 27bf 7c75 23bf dc57 86bf
00000090: cb70 14bf 2f18 04bb 7838 41be 0d12 20bf
000000a0: a889 4ebe 551c 7bbf 8b41 36bf f615 a9bd
000000b0: 9699 63bf b979 bcbe f4b5 7ebf d932 90be
000000c0: 6f9a 78bf 25b7 5fbf fbe3 81bf 295b 69bf
000000d0: 468e 40bf 8487 953c f797 64bf cdae 30bf
000000e0: 48cb b6be 1e6d 30bf 60d6 f1be e818 05bf
000000f0: 9ce6 25bf f88b 01bf 9e27 20bf d270 44bf
00000100: 6cbe 80bf 7b18 84be 4521 46bf 6f20 81bf
00000110: 2ca8 6cbf 23d2 92bf 5019 51be 502a 36bf
00000120: 659a 5abf 7688 87be 1c33 40bf 342a 3ebf
00000130: 29b4 04bf 5817 3fbf aba6 77bf 6b80 d03d
00000140: 1d09 7dbe 73db 76bf 2231 1ebf e4c5 31bf
00000150: 47d4 3bbf b9ff 34bf 34a0 87bf b56f 92bf
00000160: 08fc 50bf 6f73 79bf 8326 87bf a042 2dbf
00000170: fa37 74bf 9d6a 4bbf 2730 04bf d4e2 18bf
00000180: 1452 c4be e052 79bf 18c4 d7be 04cb 12bf
00000190: 1298 71bf 69d0 68be 73d1 40bf dafe 04bf
000001a0: 7082 70be 4cd9 89bf 89b6 00bf d52e 73bf
000001b0: f5e4 e13e 5b03 55bf 3106 34bd 2c7e cabe
000001c0: d018 38be 5422 3cbf 57c9 34be 9be9 49be
000001d0: 9dcd 47bf 9a06 66bf e753 1bbf 9586 53bf
000001e0: 513d 1fbf a669 37bf a7f9 58bf 91a1 7bbf
000001f0: d42e 8bbe 77d1 dabe 21c5 22bf b79f 43bf
00000200: 7f61 9fbe 9818 0d3f 5e07 12bf 0422 47be
00000210: 1e61 9f3e becd 5bbd c38d 0fbf e047 25be
00000220: 8949 e7bd c01e c1bd 0acb 8b3d 5dde e1be
00000230: 6d7a 57bf b016 afbe 39af 12bc e826 03bf
00000240: 97c2 adbe cfbf 57be 3c97 263e 8257 27bf
00000250: ac49 1ebf 9611 9ebe 4e25 0ebf e43b ccbe
00000260: c13a e0be 75ef 78be 269a 423d d665 52bd
00000270: 9ce7 8b3e 2acf cabe 214d 84bf 48b9 1abf
00000280: 3a23 aabe 1038 b53d f8be 04be 77c1 21bf
00000290: 05bc 8dbe 2477 38bf 5552 d83e d823 8bbd
000002a0: 71d3 8b3e 0435 aebc 4cfd 2dbe 5f88 86be
000002b0: 7d2b 89be cdc6 24be 37f9 5cbf 1a07 c73e
000002c0: 1b15 49bf f8b4 e13c 6612 d6bd 3620 34be
000002d0: d8d6 68bb bf7c b6be 9147 b5be 6c46 18bf
000002e0: bc23 2bbd b9c3 d0be 0e59 2bbe 01cc 2fbe
000002f0: 4045 fabe 35a3 44bf b14f 4abf 1ff7 e4be
00000300: 6f47 453e 3a03 113f 6891 97be b437 7abe
00000310: 0436 c9bd ab05 e3be ffc6 203e 28fc 4cbc
00000320: 3dd9 b1be 129a c53c a778 06bf c612 dbbe
00000330: 7dc2 cebd ef84 943e 203a 0ebf 7a51 61be
00000340: 848a 3ebe a029 37be dce7 9b3e 80cd edba
00000350: b54e eb3d 8a24 96be b3f2 a93e 5989 17bf
00000360: 6f3b 13bf e875 88be 866a b7be 2fad a8be
00000370: 0862 76be 3b0e 0a3f d597 03be c393 2abe
00000380: 93f1 573e 31a2 bcbe 983c 2cbe a759 b7be
00000390: d0ee dbbe c6e6 003e 9027 413e 8654 043d
000003a0: ebc2 923e d299 9cbe da82 143e eb64 64be
000003b0: 8f6d dbbe fc6d 91bd a147 a7be 8a39 09bf
000003c0: 5e31 e03e 2fb2 c0be d2bb 8c3d 348a 5e3e
000003d0: 13c5 bc3e b307 9ebd 9399 9abd fb07 37bf
000003e0: a28a cebc 27b9 49bf d81c babd 28f5 3dbe
000003f0: 7fe1 72be c796 ac3d 0e84 57be 3474 aa3b
-0.45523888 -0.2696403 -0.8323994 -0.65201694 -0.47360706 -0.9430738 -0.93366474 -0.5383939
-0.26582277 -0.8309434 -0.5267082 -0.49746937 -0.926876 -1.1642289 -0.80732465 -0.9952453
-0.99587417 -0.30223957 -0.84839714 -0.6401607 -0.8926178 -0.8474348 -0.16281885 -0.73445135
-0.7650039 -0.67694825 -0.20677595 -0.69427013 -0.3729082 -0.71835726 -1.138852 -0.65457004
-1.1093603 -0.6534303 -0.6385114 -1.0495563 -0.5798461 -0.0020156016 -0.18869197 -0.62527543
-0.20169699 -0.98090106 -0.7119376 -0.08256142 -0.8890623 -0.36811617 -0.9949639 -0.28163794
-0.97110647 -0.8738883 -1.0147699 -0.91154724 -0.7521709 0.018253095 -0.8929438 -0.69016725
-0.35701966 -0.689165 -0.47233868 -0.5199113 -0.64805007 -0.506042 -0.6256045 -0.7673465
-1.0058112 -0.25799927 -0.77394515 -1.0088023 -0.9244411 -1.1470379 -0.20419812 -0.71158314
-0.8539184 -0.264713 -0.75077987 -0.74283147 -0.518374 -0.74644995 -0.9673869 0.10180744
-0.24710508 -0.964286 -0.6179372 -0.6944258 -0.73370785 -0.707027 -1.0595765 -1.144034
-0.8163457 -0.9744176 -1.0558628 -0.67679787 -0.95397913 -0.79459554 -0.51635975 -0.5972111
-0.3834387 -0.9739208 -0.42141795 -0.5734103 -0.94372666 -0.22735752 -0.75319594 -0.5195137
-0.23487258 -1.0769439 -0.50278527 -0.94993335 0.44119993 -0.83208245 -0.043951217 -0.39549387
-0.17978215 -0.7348988 -0.1765493 -0.1971802 -0.78048116 -0.89853823 -0.606749 -0.8262723
-0.62202936 -0.7164558 -0.8475594 -0.98293406 -0.27184165 -0.42737934 -0.63582045 -0.7641558
-0.3112907 0.5511565 -0.5704249 -0.1944657 0.31128782 -0.053663008 -0.56075686 -0.161407
-0.112933226 -0.09429693 0.06825836 -0.44114962 -0.8417118 -0.34196997 -0.008952909 -0.5123124
-0.33937523 -0.21069263 0.16268629 -0.653679 -0.61831164 -0.30872792 -0.5552567 -0.39889443
-0.43794826 -0.24310096 0.04751029 -0.05136665 0.2732514 -0.3961118 -1.0336038 -0.60438967
-0.3323 0.08848584 -0.12963474 -0.6318583 -0.2768251 -0.72056794 0.42250314 -0.06793946
0.27309754 -0.021265514 -0.16991156 -0.26275918 -0.2679099 -0.16091461 -0.8631777 0.38872606
-0.7854783 0.027552113 -0.10452728 -0.17590412 -0.0035528447 -0.3564205 -0.35406163 -0.59482455
-0.041782126 -0.40774325 -0.1673319 -0.17167665 -0.4888096 -0.76811534 -0.7902785 -0.44719788
0.19265531 0.5664555 -0.29603124 -0.24435312 -0.09824756 -0.44340262 0.15700911 -0.012511291
-0.34736052 0.024121318 -0.5252785 -0.4278776 -0.100956894 0.2900767 -0.5555744 -0.22003737
-0.18607527 -0.17886972 0.30450332 -0.0018142909 0.114896215 -0.29324752 0.33192977 -0.5919395
-0.57512563 -0.26652455 -0.35823458 -0.3294463 -0.24060833 0.53927964 -0.12850888 -0.16657929
0.21088247 -0.36842492 -0.1681999 -0.35810587 -0.42955637 0.12588033 0.18862748 0.03230717
0.28664336 -0.30586106 0.14503041 -0.22304122 -0.42857024 -0.07101056 -0.32671836 -0.5360342
0.43787664 -0.37635943 0.068717614 0.21732408 0.36869106 -0.07716312 -0.07548823 -0.7149655
-0.02521259 -0.78798145 -0.09087533 -0.18550551 -0.23718832 0.08427196 -0.21046469 0.005201841
